weight1.npz (npz, 974 bytes, 3 tensors)

x_mean f8 [9]
00000000: 20c0 b531 9b3d e93f 9789 6468 73b7 0740
00000010: 9e0d 70d2 7d67 0b40 0170 1bbc abea 0840
00000020: 3e83 2642 dadc 4e40 4916 a6ae ebb0 4c40
00000030: 7c07 373b 31da 1640 f5c3 0cfa 2add 1640
00000040: 06c9 1925 b336 0c40
0.7887702914140426 2.9645755916291807 3.425532955212204 3.1145853706239 61.72541071777822 57.38219245061607 5.713078427537649 5.715984255818502
3.526708879327205

x_std f8 [9]
00000000: 98a6 52d8 5925 dc3f 37c4 2709 54d3 f03f
00000010: 198f 5ee0 8fe5 fa3f 4912 b8d1 cfa6 fa3f
00000020: 0427 27f7 a785 f43f 624a 6f9e 1e99 0040
00000030: 8e65 63b4 eeed f13f 3669 70b4 61d3 f13f
00000040: ab72 afeb 9317 e63f
0.43977972150114786 1.051593814623869 1.6810454143932871 1.6657255355977603 1.282630887452286 2.0747654321397 1.1205889746109707 1.1141068504717402
0.6903781512479176

theta f8 [10, 1]
00000000: 8152 73c9 252f af40 3303 9aa0 c833 b640
00000010: 266b 2cff eb75 5840 322c 14ff 9ba6 8240
00000020: 5300 9f46 580c 8b40 20bb 3c0b 6b9b 3ec0
00000030: dd1e 33f8 867f 54c0 e8da 77f5 5ed8 88c0
00000040: ea15 730e d6ba 70c0 3771 39e8 a9e9 86c0
3991.5738025701726 5683.78370058611 97.84252909982442 596.8261701179492 865.543103449056 -30.607102110220808 -81.99261288635485 -795.0463666309051
-267.6772598739177 -733.2079624641109
